…
2023-04-05 00:16:47     Use cuda True
2023-04-05 00:16:47     Loading dataset from /mnt/d/NLRP3/more_rmsd_5/NLRP3_20PDs_SNR01.mrcs
2023-04-05 00:16:57     Loaded 75560 128x128 images
2023-04-05 00:16:57     Windowing images with radius 0.85
2023-04-05 00:16:57     Computing FFT
2023-04-05 00:16:57     Spawning 12 processes
2023-04-05 00:17:56     Symmetrizing image data
2023-04-05 00:18:02     Normalized HT by 0 +/- 106.00669860839844
2023-04-05 00:18:04     Loading ctf params from /mnt/d/NLRP3/more_rmsd_5/ctf.pkl
2023-04-05 00:18:05     HetOnlyVAE(
  (encoder): ResidLinearMLP(
    (main): Sequential(
      (0): Linear(in_features=12852, out_features=256, bias=True)
      (1): ReLU()
      (2): ResidLinear(
        (linear): Linear(in_features=256, out_features=256, bias=True)
      )
      (3): ReLU()
      (4): ResidLinear(
        (linear): Linear(in_features=256, out_features=256, bias=True)
      )
      (5): ReLU()
      (6): ResidLinear(
        (linear): Linear(in_features=256, out_features=256, bias=True)
      )
      (7): ReLU()
      (8): Linear(in_features=256, out_features=16, bias=True)
    )
  )
  (decoder): FTPositionalDecoder(
    (decoder): ResidLinearMLP(
      (main): Sequential(
        (0): Linear(in_features=392, out_features=256, bias=True)
        (1): ReLU()
        (2): ResidLinear(
          (linear): Linear(in_features=256, out_features=256, bias=True)
        )
        (3): ReLU()
        (4): ResidLinear(
          (linear): Linear(in_features=256, out_features=256, bias=True)
        )
        (5): ReLU()
        (6): ResidLinear(
          (linear): Linear(in_features=256, out_features=256, bias=True)
        )
        (7): ReLU()
        (8): Linear(in_features=256, out_features=2, bias=True)
      )
    )
  )
)
2023-04-05 00:18:05     3790354 parameters in model
2023-04-05 00:18:05     3491856 parameters in encoder
2023-04-05 00:18:05     298498 parameters in deoder
2023-04-05 00:20:42     # =====> Epoch: 1 Average gen loss = 0.972683, KLD = 28.319792, total loss = 0.972959; Finished in 0:02:36.754816
2023-04-05 00:23:31     # =====> Epoch: 2 Average gen loss = 0.954167, KLD = 35.864643, total loss = 0.954516; Finished in 0:02:21.772335
…
