…
2023-03-18 15:04:47     Use cuda True
2023-03-18 15:04:47     Loading dataset from /home/danlin/hsp90/noise/non_zero/hsp90_50PDs_SNR01.mrcs
2023-03-18 15:04:49     Loaded 56000 128x128 images
2023-03-18 15:04:49     Windowing images with radius 0.85
2023-03-18 15:04:49     Computing FFT
2023-03-18 15:04:49     Spawning 12 processes
2023-03-18 15:05:20     Symmetrizing image data
2023-03-18 15:05:24     Normalized HT by 0 +/- 106.01922607421875
2023-03-18 15:05:26     Loading ctf params from /home/danlin/hsp90/noise/non_zero/ctf.pkl
2023-03-18 15:05:26     HetOnlyVAE(
  (encoder): ResidLinearMLP(
    (main): Sequential(
      (0): Linear(in_features=12852, out_features=256, bias=True)
      (1): ReLU()
      (2): ResidLinear(
        (linear): Linear(in_features=256, out_features=256, bias=True)
      )
      (3): ReLU()
      (4): ResidLinear(
        (linear): Linear(in_features=256, out_features=256, bias=True)
      )
      (5): ReLU()
      (6): ResidLinear(
        (linear): Linear(in_features=256, out_features=256, bias=True)
      )
      (7): ReLU()
      (8): Linear(in_features=256, out_features=16, bias=True)
    )
  )
  (decoder): FTPositionalDecoder(
    (decoder): ResidLinearMLP(
      (main): Sequential(
        (0): Linear(in_features=392, out_features=256, bias=True)
        (1): ReLU()
        (2): ResidLinear(
          (linear): Linear(in_features=256, out_features=256, bias=True)
        )
        (3): ReLU()
        (4): ResidLinear(
          (linear): Linear(in_features=256, out_features=256, bias=True)
        )
        (5): ReLU()
        (6): ResidLinear(
          (linear): Linear(in_features=256, out_features=256, bias=True)
        )
        (7): ReLU()
        (8): Linear(in_features=256, out_features=2, bias=True)
      )
    )
  )
)
2023-03-18 15:05:26     3790354 parameters in model
2023-03-18 15:05:26     3491856 parameters in encoder
2023-03-18 15:05:26     298498 parameters in deoder
2023-03-18 15:07:07     # =====> Epoch: 1 Average gen loss = 0.968015, KLD = 18.827155, total loss = 0.968198; Finished in 0:01:40.869565
2023-03-18 15:09:02     # =====> Epoch: 2 Average gen loss = 0.947661, KLD = 23.086665, total loss = 0.947886; Finished in 0:01:40.274463
…
