…
2023-03-24 22:04:11     Use cuda True
2023-03-24 22:04:11     Loading dataset from /home/danlin/hsp90/more_rmsd/hsp90_50PDs_SNR01.mrcs
2023-03-24 22:04:12     Loaded 56000 128x128 images
2023-03-24 22:04:12     Windowing images with radius 0.85
2023-03-24 22:04:12     Computing FFT
2023-03-24 22:04:12     Spawning 12 processes
2023-03-24 22:04:45     Symmetrizing image data
2023-03-24 22:04:48     Normalized HT by 0 +/- 105.96208953857422
2023-03-24 22:04:49     Loading ctf params from /home/danlin/hsp90/more_rmsd/ctf.pkl
2023-03-24 22:04:49     HetOnlyVAE(
  (encoder): ResidLinearMLP(
    (main): Sequential(
      (0): Linear(in_features=12852, out_features=256, bias=True)
      (1): ReLU()
      (2): ResidLinear(
        (linear): Linear(in_features=256, out_features=256, bias=True)
      )
      (3): ReLU()
      (4): ResidLinear(
        (linear): Linear(in_features=256, out_features=256, bias=True)
      )
      (5): ReLU()
      (6): ResidLinear(
        (linear): Linear(in_features=256, out_features=256, bias=True)
      )
      (7): ReLU()
      (8): Linear(in_features=256, out_features=16, bias=True)
    )
  )
  (decoder): FTPositionalDecoder(
    (decoder): ResidLinearMLP(
      (main): Sequential(
        (0): Linear(in_features=392, out_features=256, bias=True)
        (1): ReLU()
        (2): ResidLinear(
          (linear): Linear(in_features=256, out_features=256, bias=True)
        )
        (3): ReLU()
        (4): ResidLinear(
          (linear): Linear(in_features=256, out_features=256, bias=True)
        )
        (5): ReLU()
        (6): ResidLinear(
          (linear): Linear(in_features=256, out_features=256, bias=True)
        )
        (7): ReLU()
        (8): Linear(in_features=256, out_features=2, bias=True)
      )
    )
  )
)
2023-03-24 22:04:49     3790354 parameters in model
2023-03-24 22:04:49     3491856 parameters in encoder
2023-03-24 22:04:49     298498 parameters in deoder
2023-03-24 22:06:39     # =====> Epoch: 1 Average gen loss = 0.973626, KLD = 19.665006, total loss = 0.973818; Finished in 0:01:49.727392
2023-03-24 22:08:40     # =====> Epoch: 2 Average gen loss = 0.956101, KLD = 24.709687, total loss = 0.956342; Finished in 0:01:46.340955
…
